…
Training class distribution:
no_zebra: 5405
zebra: 1059

Validation class distribution:
no_zebra: 1158
zebra: 226

Test class distribution:
no_zebra: 1159
zebra: 228

Training imbalance ratio:    5.10
Validation imbalance ratio:  5.12
Test imbalance ratio:        5.08

3. Build data augmentation

4. Build baseline CNN model
Model: "baseline_cnn"
+--------------------------------------------------------------------------+
| Layer (type)                    | Output Shape           |       Param # |
|---------------------------------+------------------------+---------------|
| data_augmentation (Sequential)  | (None, 160, 160, 3)    |             0 |
|---------------------------------+------------------------+---------------|
| rescaling (Rescaling)           | (None, 160, 160, 3)    |             0 |
|---------------------------------+------------------------+---------------|
| conv2d (Conv2D)                 | (None, 158, 158, 32)   |           896 |
|---------------------------------+------------------------+---------------|
| max_pooling2d (MaxPooling2D)    | (None, 79, 79, 32)     |             0 |
|---------------------------------+------------------------+---------------|
| conv2d_1 (Conv2D)               | (None, 77, 77, 64)     |        18,496 |
|---------------------------------+------------------------+---------------|
| max_pooling2d_1 (MaxPooling2D)  | (None, 38, 38, 64)     |             0 |
|---------------------------------+------------------------+---------------|
| conv2d_2 (Conv2D)               | (None, 36, 36, 128)    |        73,856 |
|---------------------------------+------------------------+---------------|
| max_pooling2d_2 (MaxPooling2D)  | (None, 18, 18, 128)    |             0 |
|---------------------------------+------------------------+---------------|
| flatten (Flatten)               | (None, 41472)          |             0 |
|---------------------------------+------------------------+---------------|
| dense (Dense)                   | (None, 128)            |     5,308,544 |
|---------------------------------+------------------------+---------------|
| dropout (Dropout)               | (None, 128)            |             0 |
|---------------------------------+------------------------+---------------|
| dense_1 (Dense)                 | (None, 1)              |           129 |
+--------------------------------------------------------------------------+
 Total params: 5,401,921 (20.61 MB)
 Trainable params: 5,401,921 (20.61 MB)
 Non-trainable params: 0 (0.00 B)

5. Compile baseline model

6. Train baseline model

Training baseline CNN model...
Epoch 1/20

[1m  1/202[0m [37m====================[0m [1m35:57[0m 11s/step - accuracy: 0.6562 - loss: 0.6808 - precision: 0.2500 - recall: 0.6000
…
